_________________________________________________________________
Layer (type)                 Output Shape              Param #   
=================================================================
input_2 (InputLayer)         (None, 1, 600, 1)         0         
_________________________________________________________________
flatten_2 (Flatten)          (None, 600)               0         
_________________________________________________________________
dense_5 (Dense)              (None, 512)               307712    
_________________________________________________________________
leaky_re_lu_5 (LeakyReLU)    (None, 512)               0         
_________________________________________________________________
dense_6 (Dense)              (None, 512)               262656    
_________________________________________________________________
leaky_re_lu_6 (LeakyReLU)    (None, 512)               0         
_________________________________________________________________
dense_7 (Dense)              (None, 512)               262656    
_________________________________________________________________
leaky_re_lu_7 (LeakyReLU)    (None, 512)               0         
_________________________________________________________________
dense_8 (Dense)              (None, 512)               262656    
_________________________________________________________________
leaky_re_lu_8 (LeakyReLU)    (None, 512)               0         
_________________________________________________________________
D_A_Out (Dense)              (None, 1)                 513       
=================================================================
Total params: 2,192,386
Trainable params: 1,096,193
Non-trainable params: 1,096,193
_________________________________________________________________
_________________________________________________________________
Layer (type)                 Output Shape              Param #   
=================================================================
input_1 (InputLayer)         (None, 1, 600, 1)         0         
_________________________________________________________________
flatten_1 (Flatten)          (None, 600)               0         
_________________________________________________________________
dense_1 (Dense)              (None, 512)               307712    
_________________________________________________________________
leaky_re_lu_1 (LeakyReLU)    (None, 512)               0         
_________________________________________________________________
dense_2 (Dense)              (None, 512)               262656    
_________________________________________________________________
leaky_re_lu_2 (LeakyReLU)    (None, 512)               0         
_________________________________________________________________
dense_3 (Dense)              (None, 512)               262656    
_________________________________________________________________
leaky_re_lu_3 (LeakyReLU)    (None, 512)               0         
_________________________________________________________________
dense_4 (Dense)              (None, 512)               262656    
_________________________________________________________________
leaky_re_lu_4 (LeakyReLU)    (None, 512)               0         
_________________________________________________________________
D_B_Out (Dense)              (None, 1)                 513       
=================================================================
Total params: 2,192,386
Trainable params: 1,096,193
Non-trainable params: 1,096,193
_________________________________________________________________
__________________________________________________________________________________________________
Layer (type)                    Output Shape         Param #     Connected to                     
==================================================================================================
ivec_b (InputLayer)             (None, 1, 600, 1)    0                                            
__________________________________________________________________________________________________
ivec_a (InputLayer)             (None, 1, 600, 1)    0                                            
__________________________________________________________________________________________________
model_4 (Model)                 (None, 1, 600, 1)    1140824     ivec_b[0][0]                     
                                                                 model_3[1][0]                    
                                                                 ivec_a[0][0]                     
__________________________________________________________________________________________________
model_3 (Model)                 (None, 1, 600, 1)    1140824     ivec_a[0][0]                     
                                                                 model_4[1][0]                    
                                                                 ivec_b[0][0]                     
__________________________________________________________________________________________________
model_2 (Model)                 (None, 1)            1096193     model_4[1][0]                    
__________________________________________________________________________________________________
model_1 (Model)                 (None, 1)            1096193     model_3[1][0]                    
==================================================================================================
Total params: 4,474,034
Trainable params: 2,281,648
Non-trainable params: 2,192,386
__________________________________________________________________________________________________
Start CycleGAN training.
[Epoch 1/50] [Batch 0/516] [D loss: 0.092236, acc:  32%] [G loss: 15.923780, adv: -0.000424, cyc: 0.720440, id: 0.816813] time: 0:01:25.674108 
…
